…
        "id": "K2K4oY-MGUcs",
        "colab_type": "code",
        "colab": {
          "base_uri": "https://localhost:8080/",
          "height": 1000
        },
        "outputId": "a955b427-b614-41d8-eb08-ac757f1820be"
      },
      "source": [
        "print(model)\n",
        "print(tokenizer)"
      ],
      "execution_count": 6,
      "outputs": [
        {
          "output_type": "stream",
          "text": [
            "DistilBertForSequenceClassification(\n",
            "  (distilbert): DistilBertModel(\n",
            "    (embeddings): Embeddings(\n",
            "      (word_embeddings): Embedding(30522, 768, padding_idx=0)\n",
            "      (position_embeddings): Embedding(512, 768)\n",
            "      (LayerNorm): LayerNorm((768,), eps=1e-12, elementwise_affine=True)\n",
            "      (dropout): Dropout(p=0.1, inplace=False)\n",
            "    )\n",
            "    (transformer): Transformer(\n",
            "      (layer): ModuleList(\n",
            "        (0): TransformerBlock(\n",
            "          (attention): MultiHeadSelfAttention(\n",
            "            (dropout): Dropout(p=0.1, inplace=False)\n",
            "            (q_lin): Linear(in_features=768, out_features=768, bias=True)\n",
            "            (k_lin): Linear(in_features=768, out_features=768, bias=True)\n",
            "            (v_lin): Linear(in_features=768, out_features=768, bias=True)\n",
            "            (out_lin): Linear(in_features=768, out_features=768, bias=True)\n",
            "          )\n",
            "          (sa_layer_norm): LayerNorm((768,), eps=1e-12, elementwise_affine=True)\n",
            "          (ffn): FFN(\n",
            "            (dropout): Dropout(p=0.1, inplace=False)\n",
            "            (lin1): Linear(in_features=768, out_features=3072, bias=True)\n",
            "            (lin2): Linear(in_features=3072, out_features=768, bias=True)\n",
            "          )\n",
            "          (output_layer_norm): LayerNorm((768,), eps=1e-12, elementwise_affine=True)\n",
            "        )\n",
            "        (1): TransformerBlock(\n",
            "          (attention): MultiHeadSelfAttention(\n",
            "            (dropout): Dropout(p=0.1, inplace=False)\n",
            "            (q_lin): Linear(in_features=768, out_features=768, bias=True)\n",
            "            (k_lin): Linear(in_features=768, out_features=768, bias=True)\n",
            "            (v_lin): Linear(in_features=768, out_features=768, bias=True)\n",
            "            (out_lin): Linear(in_features=768, out_features=768, bias=True)\n",
            "          )\n",
            "          (sa_layer_norm): LayerNorm((768,), eps=1e-12, elementwise_affine=True)\n",
            "          (ffn): FFN(\n",
            "            (dropout): Dropout(p=0.1, inplace=False)\n",
            "            (lin1): Linear(in_features=768, out_features=3072, bias=True)\n",
            "            (lin2): Linear(in_features=3072, out_features=768, bias=True)\n",
            "          )\n",
            "          (output_layer_norm): LayerNorm((768,), eps=1e-12, elementwise_affine=True)\n",
            "        )\n",
            "        (2): TransformerBlock(\n",
            "          (attention): MultiHeadSelfAttention(\n",
            "            (dropout): Dropout(p=0.1, inplace=False)\n",
            "            (q_lin): Linear(in_features=768, out_features=768, bias=True)\n",
            "            (k_lin): Linear(in_features=768, out_features=768, bias=True)\n",
            "            (v_lin): Linear(in_features=768, out_features=768, bias=True)\n",
            "            (out_lin): Linear(in_features=768, out_features=768, bias=True)\n",
            "          )\n",
            "          (sa_layer_norm): LayerNorm((768,), eps=1e-12, elementwise_affine=True)\n",
            "          (ffn): FFN(\n",
            "            (dropout): Dropout(p=0.1, inplace=False)\n",
            "            (lin1): Linear(in_features=768, out_features=3072, bias=True)\n",
            "            (lin2): Linear(in_features=3072, out_features=768, bias=True)\n",
            "          )\n",
            "          (output_layer_norm): LayerNorm((768,), eps=1e-12, elementwise_affine=True)\n",
            "        )\n",
            "        (3): TransformerBlock(\n",
            "          (attention): MultiHeadSelfAttention(\n",
            "            (dropout): Dropout(p=0.1, inplace=False)\n",
            "            (q_lin): Linear(in_features=768, out_features=768, bias=True)\n",
            "            (k_lin): Linear(in_features=768, out_features=768, bias=True)\n",
            "            (v_lin): Linear(in_features=768, out_features=768, bias=True)\n",
            "            (out_lin): Linear(in_features=768, out_features=768, bias=True)\n",
            "          )\n",
            "          (sa_layer_norm): LayerNorm((768,), eps=1e-12, elementwise_affine=True)\n",
            "          (ffn): FFN(\n",
            "            (dropout): Dropout(p=0.1, inplace=False)\n",
            "            (lin1): Linear(in_features=768, out_features=3072, bias=True)\n",
            "            (lin2): Linear(in_features=3072, out_features=768, bias=True)\n",
            "          )\n",
            "          (output_layer_norm): LayerNorm((768,), eps=1e-12, elementwise_affine=True)\n",
            "        )\n",
            "        (4): TransformerBlock(\n",
            "          (attention): MultiHeadSelfAttention(\n",
            "            (dropout): Dropout(p=0.1, inplace=False)\n",
            "            (q_lin): Linear(in_features=768, out_features=768, bias=True)\n",
            "            (k_lin): Linear(in_features=768, out_features=768, bias=True)\n",
            "            (v_lin): Linear(in_features=768, out_features=768, bias=True)\n",
            "            (out_lin): Linear(in_features=768, out_features=768, bias=True)\n",
            "          )\n",
            "          (sa_layer_norm): LayerNorm((768,), eps=1e-12, elementwise_affine=True)\n",
            "          (ffn): FFN(\n",
            "            (dropout): Dropout(p=0.1, inplace=False)\n",
            "            (lin1): Linear(in_features=768, out_features=3072, bias=True)\n",
            "            (lin2): Linear(in_features=3072, out_features=768, bias=True)\n",
            "          )\n",
            "          (output_layer_norm): LayerNorm((768,), eps=1e-12, elementwise_affine=True)\n",
            "        )\n",
            "        (5): TransformerBlock(\n",
            "          (attention): MultiHeadSelfAttention(\n",
            "            (dropout): Dropout(p=0.1, inplace=False)\n",
            "            (q_lin): Linear(in_features=768, out_features=768, bias=True)\n",
            "            (k_lin): Linear(in_features=768, out_features=768, bias=True)\n",
            "            (v_lin): Linear(in_features=768, out_features=768, bias=True)\n",
            "            (out_lin): Linear(in_features=768, out_features=768, bias=True)\n",
            "          )\n",
            "          (sa_layer_norm): LayerNorm((768,), eps=1e-12, elementwise_affine=True)\n",
            "          (ffn): FFN(\n",
            "            (dropout): Dropout(p=0.1, inplace=False)\n",
            "            (lin1): Linear(in_features=768, out_features=3072, bias=True)\n",
            "            (lin2): Linear(in_features=3072, out_features=768, bias=True)\n",
            "          )\n",
            "          (output_layer_norm): LayerNorm((768,), eps=1e-12, elementwise_affine=True)\n",
            "        )\n",
            "      )\n",
            "    )\n",
            "  )\n",
            "  (pre_classifier): Linear(in_features=768, out_features=768, bias=True)\n",
            "  (classifier): Linear(in_features=768, out_features=2, bias=True)\n",
            "  (dropout): Dropout(p=0.2, inplace=False)\n",
            ")\n",
            "<transformers.tokenization_distilbert.DistilBertTokenizer object at 0x7ffa0635dda0>\n"
          ],
          "name": "stdout"
        }
      ]
    },
    {
      "cell_type": "markdown",
      "metadata": {
        "id": "4UctC2_JEQhx",
        "colab_type": "text"
…
